…
+-------------------------+------------------------------+------------------+----------------------+
| tokens_per_pass: 2      | speed_test: False            | save_name: model |                      |
+-------------------------+------------------------------+------------------+----------------------+

Model Summary:
===============================================================================================
Layer (type:depth-idx)                        Output Shape              Param #
===============================================================================================
SplitformerModel                              [1, 512, 57566]           --
├─SplitformerDecoder: 1-1                     [1, 512, 57566]           --
│    └─Embedding: 2-1                         [1, 512, 128]             3,684,224
│    └─Dropout: 2-2                           [1, 512, 128]             --
│    └─ModuleList: 2-3                        --                        --
│    │    └─DecoderLayer: 3-1                 [1, 512, 128]             332,160
│    │    └─DecoderLayer: 3-2                 [1, 512, 128]             332,160
│    │    └─DecoderLayer: 3-3                 [1, 512, 128]             332,160
│    │    └─DecoderLayer: 3-4                 [1, 512, 128]             332,160
│    │    └─DecoderLayer: 3-5                 [1, 512, 128]             332,160
│    │    └─DecoderLayer: 3-6                 [1, 512, 128]             332,160
│    │    └─DecoderLayer: 3-7                 [1, 512, 128]             332,160
│    │    └─DecoderLayer: 3-8                 [1, 512, 128]             332,160
│    └─LayerNorm: 2-4                         [1, 512, 128]             256
│    └─Linear: 2-5                            [1, 512, 57566]           7,368,448
===============================================================================================
Total params: 13,710,208
Trainable params: 13,710,208
Non-trainable params: 0
Total mult-adds (Units.GIGABYTES): 1.10
===============================================================================================
Input size (MB): 0.00
Forward/backward pass size (MB): 337.50
Params size (MB): 54.84
Estimated Total Size (MB): 392.35
…
