…
+-------------------------+------------------------------+------------------+----------------------+
| tokens_per_pass: 5      | speed_test: False            | save_name: model |                      |
+-------------------------+------------------------------+------------------+----------------------+

Model Summary:
===============================================================================================
Layer (type:depth-idx)                        Output Shape              Param #
===============================================================================================
SplitformerModel                              [1, 512, 143915]          --
├─SplitformerDecoder: 1-1                     [1, 512, 143915]          --
│    └─Embedding: 2-1                         [1, 512, 128]             3,684,224
│    └─Dropout: 2-2                           [1, 512, 128]             --
│    └─ModuleList: 2-3                        --                        --
│    │    └─DecoderLayer: 3-1                 [1, 512, 128]             332,160
│    │    └─DecoderLayer: 3-2                 [1, 512, 128]             332,160
│    │    └─DecoderLayer: 3-3                 [1, 512, 128]             332,160
│    │    └─DecoderLayer: 3-4                 [1, 512, 128]             332,160
│    │    └─DecoderLayer: 3-5                 [1, 512, 128]             332,160
│    │    └─DecoderLayer: 3-6                 [1, 512, 128]             332,160
│    │    └─DecoderLayer: 3-7                 [1, 512, 128]             332,160
│    │    └─DecoderLayer: 3-8                 [1, 512, 128]             332,160
│    └─LayerNorm: 2-4                         [1, 512, 128]             256
│    └─Linear: 2-5                            [1, 512, 143915]          18,421,120
===============================================================================================
Total params: 24,762,880
Trainable params: 24,762,880
Non-trainable params: 0
Total mult-adds (Units.GIGABYTES): 1.11
===============================================================================================
Input size (MB): 0.00
Forward/backward pass size (MB): 691.19
Params size (MB): 99.05
Estimated Total Size (MB): 790.24
…
